log/custom_model_state.pt (torch, 425123 bytes, 69 tensors)

pos_embedding f4 [1, 31, 64]
000000 70 99 75 bf 98 d5 8d bf b2 10 58 be dc c5 e1 be
       -0.9593725 -1.1080809 -0.21100119 -0.44096267
000010 21 cb 36 3f 21 66 10 3f 01 37 a2 be ab 3a fd bf
       0.714037 0.56405836 -0.3168259 -1.9783529
000020 9b 44 6b 3e 2e 8e a2 bf 44 6b b8 3e 2b ea e0 3e
       0.2297539 -1.269964 0.36019337 0.43928656
000030 89 ce 20 3e 05 f4 a1 3f fd bd 8b 3f 14 2a c4 be
       0.15703787 1.2652594 1.0917355 -0.38313353
000040 83 fd b4 bf 4d d7 df bf 3a cd f0 3e 40 ff 49 3f
       -1.4139866 -1.748758 0.47031575 0.78905106
000050 38 5b 3d 3f 58 8a d4 bf f9 32 ac bd b4 da db 3f
       0.73967314 -1.6604719 -0.0840816 1.7176118
000060 5c 99 34 3f 64 f3 05 bf 3e d1 80 bd 99 cb b3 3c
       0.7054651 -0.5232451 -0.0628991 0.021947669
000070 9e 37 a5 3f e2 a9 d6 3f 52 fc 60 3f f2 00 69 bf
       1.2907598 1.6770594 0.8788501 -0.9101707
000080 5d 83 2f bf a2 95 6b 3d 26 c1 b0 be 41 3b 6a 3e
       -0.6855982 0.057515748 -0.3452236 0.22874166
000090 0a 29 11 3f c2 4b 85 3e e1 d0 1a 3f fd d6 bc 3e
       0.56703246 0.2603436 0.60474974 0.36882773
0000a0 2d a3 30 be 03 d2 3e 3f 55 ba 3b be 8d db 02 be
       -0.17249747 0.745392 -0.18332799 -0.12779064
0000b0 05 28 c3 3e cc 5b 12 40 8a eb b7 bf 18 b5 d0 bf
       0.3811647 2.2868528 -1.4368756 -1.6305265
0000c0 6d b3 3e bf 8c 39 85 3f 62 6d 79 3f 6f 27 37 3e
       -0.7449253 1.0408187 0.9743253 0.17886136
0000d0 4b 2a cd be 39 77 ad be 5d 5f d1 3e bb 80 ed be
       -0.4007133 -0.33880022 0.4089307 -0.46387276
0000e0 c1 7a ea be 1c c7 3a 3f 7a 5c a7 3f 90 78 63 40
       -0.4579678 0.72960067 1.3075097 3.5542336
0000f0 60 e6 cc bf bd 82 9d bf b8 e5 ec 3f 18 b1 05 bf
       -1.6007805 -1.2305523 1.8507605 -0.5222335
000100 64 4c 0a bf 29 63 15 3f ae 33 2c 3f a3 8a 8e 3f
       -0.5402281 0.5835443 0.67266357 1.1136059
000110 85 ea aa bf 33 dc 0e 40 6a 0f a2 be 12 3e 92 bc
       -1.335282 2.23219 -0.31652385 -0.017851863
000120 94 e3 9c bf cc 9d b6 be 0e a9 fb be 61 f8 d4 be
       -1.2256951 -0.35667264 -0.49152416 -0.41595748
000130 f7 3b 3f bf 42 a9 3e 3f 28 d5 0c be 33 aa 43 3f
       -0.74700874 0.74477017 -0.13753188 0.7643158
000140 19 91 1b bc a0 17 00 3f 1b 0f 17 bf da 9b 5f 3d
       -0.009495043 0.5003605 -0.59007424 0.05459199
000150 7c f4 2a 3f e7 d5 c3 be 30 47 1c 3f 6f af e2 3e
       0.66779304 -0.38249132 0.61046124 0.4427447
000160 db ef b5 be 31 2f f5 3f c8 a0 c9 bf 7a fa 85 3e
       -0.35534558 1.9155027 -1.5752192 0.2616766
000170 47 e8 2c bf 87 bd 11 bf 6f 20 2e 3e 84 b0 38 3f
       -0.6754193 -0.5692982 0.1700456 0.7214434
000180 da c4 c0 3f 99 a0 91 bf 71 cd f7 3c 05 56 fe 3e
       1.5060074 -1.1377136 0.03024933 0.49675003
000190 30 b3 1e c0 1b c1 b6 bf b1 f5 6b be 70 97 1f 3e
       -2.4796867 -1.4277681 -0.23042943 0.15585113
0001a0 c2 d8 cf bd e4 92 b6 3d bc c7 d8 3d d5 90 15 3f
       -0.10148765 0.08914736 0.10584971 0.5842412
0001b0 5f e8 57 3e a7 45 09 bf 9e e4 fe 3e 71 25 32 bf
       0.21084736 -0.53621906 0.49783796 -0.6958838
0001c0 9f 3d 57 be 56 65 16 c0 7c c9 da bd dc f2 95 bd
       -0.210196 -2.349935 -0.10682961 -0.073217124
0001d0 7f 54 46 3f 15 81 30 3e 6e 6e 2a bf 6d 47 f5 3d
       0.7747268 0.17236741 -0.6657475 0.11976514
0001e0 c1 3f e8 be de 80 0c be a0 43 e2 3f d9 72 3b be
       -0.4536114 -0.13721034 1.7676888 -0.1830553
0001f0 c2 b2 8c ba bf b4 70 3f 34 d3 0e 3f 66 31 72 3f
       -0.0010734426 0.94025797 0.5579102 0.94606626
000200 3f 4e 4a bf 36 52 c2 be 12 f9 44 bf 01 15 f8 3e
       -0.79025644 -0.37953347 -0.7694255 0.48453525
000210 5c f7 f2 3e ae df 00 3f 8c 38 c2 3f fd a2 1e bf
       0.47454345 0.5034131 1.5173507 -0.6196745
000220 19 68 e7 bd a3 aa 12 bd f6 24 09 bf 89 06 4a bf
       -0.11299152 -0.035807263 -0.5357202 -0.7891622
000230 58 8c 72 3e 8e 2a 76 bf 6b 15 b4 be 41 8a 84 3e
       0.2368635 -0.96158683 -0.3517259 0.2588673
000240 9d 52 a2 be 98 58 f1 bc 56 55 c3 3d 18 c4 5b 3f
       -0.31703654 -0.02946119 0.09537761 0.8584609
000250 33 e3 e9 3e a4 d6 46 3e 7a 2c 98 be 58 9c e4 bc
       0.45681152 0.19417816 -0.29721433 -0.027906582
000260 df eb d9 bd 70 4a 21 bf dc c7 ba bf ba 15 9e 3d
       -0.10640692 -0.6300421 -1.4592242 0.07718988
000270 1c c3 e9 be 93 98 e4 3e 28 13 88 3e 54 4c 16 3f
       -0.4565667 0.44647655 0.26577115 0.5871022
000280 cd d5 70 3f cf c8 17 bf d7 0c 6f 3e 8b c0 fb bd
       0.94076234 -0.59290785 0.23344742 -0.12292584
000290 bb ce 19 3f 76 6e d5 be 40 87 0e 3f 5c 42 d1 3d
       0.6008107 -0.41685838 0.55675125 0.10217735
0002a0 55 fa 7c 3d f4 74 ea 3e 65 1c 3f be 35 18 e5 3e
       0.061762173 0.45792353 -0.18663175 0.4474503
0002b0 5d d2 0e bf a0 b9 44 bf cf 10 c0 3e 3c 3e 8d bf
       -0.5578974 -0.7684574 0.37512824 -1.1034617
0002c0 ea da 96 be 99 93 1b be 58 db 92 bf a4 89 18 bf
       -0.29463893 -0.15193023 -1.1473188 -0.5958502
0002d0 a7 0f 41 3f 24 cb dd bd f2 ce a6 3f 09 93 f7 3e
       0.7541451 -0.108297616 1.3031905 0.48354366
0002e0 5a 33 23 bf 69 f4 8f be c6 28 81 3f b7 3a 6d 3e
       -0.6375023 -0.28116158 1.0090568 0.23166929
0002f0 14 28 bd 3e dd 02 33 bf ec de 50 bf 8d 88 61 bf
       0.3694464 -0.69926244 -0.8159015 -0.88098985
000300 08 ec 19 bf ac 70 9a 3e 8d 0a 62 3e 20 88 f1 3e
       -0.6012578 0.30164087 0.22074337 0.47174168
000310 10 2a 4b 3d fd db 41 3f 94 de 07 bd 6b 18 1b 3f
       0.04960066 0.757263 -0.03317125 0.60584134
000320 e3 87 c1 bd ce 36 6d bf a6 13 81 3e 97 f7 ce 3e
       -0.094497465 -0.9266175 0.25210303 0.4042327
000330 cc e3 fb 3e 68 9b 9b bf 25 ab b7 3e e3 1a ea be
       0.49197233 -1.2156801 0.3587276 -0.45723638
000340 85 60 4d 3f dd 7b c1 3d 96 76 27 3f dc 26 38 3f
       0.802254 0.09447453 0.6541532 0.71934295
000350 39 e0 71 bf 1c 07 2c 3f 19 63 d7 be b5 ce 81 bf
       -0.9448276 0.6719835 -0.42067793 -1.0141207
000360 73 40 34 3f 03 ae 7d 3f af e8 1f bf 53 c2 ad 3e
       0.7041084 0.99093646 -0.6246442 0.3393732
000370 38 f2 2a 3e 1f 67 ef 3d d0 d2 6c bf e2 e7 1e 3d
       0.16693962 0.11689591 -0.92509174 0.03879536
000380 6d aa 94 bd 99 40 97 3f c0 19 73 3e 7e cf 6e 3e
       -0.07259069 1.1816589 0.23740292 0.2332134
000390 df 34 ad be 3e f0 d4 3e 86 14 94 bd be 34 99 bf
       -0.338294 0.4158954 -0.07230477 -1.1969221
0003a0 10 35 ce bd 45 25 9e be 0b e4 9d be a7 e4 32 3f
       -0.100687146 -0.3088781 -0.30838045 0.69880146
0003b0 cf 6e 59 bf 97 ba df 3e 4b 4d 66 3f 6a 14 bd bf
       -0.84934705 0.43697044 0.8996169 -1.4771855
0003c0 41 78 b1 bf 34 89 c3 bf 94 ea f7 3c 83 15 53 bf
       -1.3864824 -1.5276246 0.030263223 -0.824547
0003d0 7e a9 9b 3f 92 40 87 be 75 f4 3c 3f 6e ad 72 bc
       1.21611 -0.2641645 0.7381051 -0.014811857
0003e0 14 17 9c ba 7f dc 7d 3f 08 93 62 3f b1 fd d2 be
       -0.0011908733 0.99164575 0.885056 -0.41209176
0003f0 92 e9 58 bf c9 f3 73 bd 85 96 be 3f 9c f6 2a 3e
       -0.847314 -0.059558664 1.4889685 0.16695637

cls_token f4 [1, 1, 64]
000000 07 b7 00 3f b8 85 50 3e db 20 8c bf 2b d1 00 3f
       0.5027928 0.2036351 -1.0947527 0.50319165
000010 6b 98 0c 3e 6f 43 96 3f 68 67 83 3f af 55 aa 3f
       0.13730018 1.1739329 1.0265932 1.3307399
000020 1f ed 58 3e fc a3 82 3f 0b bd 49 3e 1c be 59 3f
       0.21184205 1.0206294 0.1970102 0.8505571
000030 ce 22 8c be a1 50 8c bf 17 f6 ac be 56 f8 25 40
       -0.27370304 -1.0962106 -0.33781502 2.5932822
000040 87 29 b9 bf 5d c7 1b bf 92 29 5f 3e 3b de 72 3f
       -1.4465798 -0.6085108 0.21793202 0.94870347
000050 36 c8 80 3f 75 35 e2 3e d3 eb 80 3e 4a 87 3f 3f
       1.00611 0.4418141 0.2517992 0.7481581
000060 44 2e ad 3f 04 b7 e5 bf 7e 78 65 3f 38 65 2e 3f
       1.3529744 -1.7946477 0.8963698 0.681232
000070 76 4c a5 3f 71 4d e7 bf dc 28 44 3e 0f c9 5c c0
       1.2913959 -1.8070508 0.19156212 -3.4497716
000080 9c 9d c9 be c1 ea c4 3f f2 e7 55 bf 7d 0e 65 3f
       -0.3937806 1.5384141 -0.83557045 0.8947523
000090 b6 9e 28 bf 9a bc dc 3e 86 f0 10 3f 0f 61 d2 3d
       -0.65867174 0.43112642 0.5661701 0.10272419
0000a0 ba 28 ac 3f 45 f9 93 3e 2f 5c ec bc 89 f6 22 be
       1.3449929 0.28901115 -0.02885255 -0.15914358
0000b0 cb 9d e6 bd 2e 73 29 bf 38 76 20 40 6d b5 94 bf
       -0.11260565 -0.66191375 2.5072155 -1.1617867
0000c0 f8 a7 13 3f ce 13 20 3f ce 24 8a 3c 0f b2 9a 3f
       0.57678175 0.6253022 0.016863253 1.2085589
0000d0 60 21 86 bc 22 5d cb bf c7 1d ed 3d 8e be b6 bf
       -0.016373336 -1.5887797 0.11577945 -1.4276903
0000e0 24 48 21 3f 42 9c 51 be 09 5a 59 be ae 6d a4 3f
       0.630007 -0.20469764 -0.21225752 1.2845972
0000f0 27 90 0b bf 82 7f 30 be ee 87 a7 3f 5f 78 8a 3f
       -0.54516834 -0.1723614 1.3088357 1.0817984

patch_to_embedding.weight f4 [64, 27]
000000 b3 86 75 3d 39 23 07 3d 49 ad 73 3e f6 4e 5d be
       0.059942912 0.032992575 0.23796572 -0.21612152
000010 18 3a 1c 3e 0e 69 bc 3e c0 cc 4e be a7 c6 79 3c
       0.15256536 0.367989 -0.20195293 0.015245116
000020 fa 0b 9d 3e b1 44 04 be 70 0f 0b be d1 05 21 3e
       0.306732 -0.12916829 -0.13580108 0.15724875
000030 45 de 88 bd cf 13 e1 3b 07 fa 0b 3c d5 be 03 3e
       -0.066830195 0.0068688164 0.008543498 0.12865765
000040 30 83 10 3e 76 b8 e8 3d 3d dd d8 3c 13 90 37 3e
       0.14112544 0.11363308 0.026472682 0.17926054
000050 fe ab 3f 3e 61 38 7e bd 56 66 b1 3d ae 08 34 3e
       0.18717954 -0.062065486 0.08662097 0.17581436
000060 16 da 51 bd 42 c5 91 3e 67 4b 81 bd fe d9 53 3e
       -0.051233374 0.28470808 -0.0631321 0.20688626
000070 99 fe e6 bd f8 cf 74 3d 53 7b 91 3e c2 d4 55 3c
       -0.112790294 0.059768647 0.284144 0.013051214
000080 29 f0 0d be ac 8d 30 3e 92 60 4d be ba 06 8e be
       -0.13861145 0.17241544 -0.2005637 -0.27739507
000090 06 0a ab bd 79 04 a7 bd 9c 31 22 3d 4a 49 9a 3d
       -0.08351521 -0.0815515 0.039598092 0.0753351
0000a0 85 1b 7c 3d 85 c5 2e bd 5a 74 95 3e 65 e5 e8 bd
       0.061549682 -0.042668838 0.29190332 -0.113718785
0000b0 45 6c 23 be 9c 4a c7 3e fa b7 db 3c 96 f9 23 3e
       -0.1595927 0.3892411 0.026821125 0.16013178
0000c0 3e a9 7f 3e a6 aa 94 3d 90 ca fb bd da 54 a7 3e
       0.24966905 0.07259111 -0.12294495 0.32681924
0000d0 81 70 2c 3e 46 26 36 be 5c 8e 28 3e e1 04 a5 3d
       0.16839792 -0.17788038 0.16460556 0.08057571
0000e0 a3 85 2e 3d d7 13 e0 3d 21 5b a2 3e c0 7c bd 3e
       0.042607915 0.10941284 0.3171015 0.3700924
0000f0 90 57 66 3e 3f 85 8f 3e 46 d1 bf 3e 02 e3 8e be
       0.2249434 0.28031346 0.3746435 -0.27907568
000100 36 58 95 be 83 b8 49 be 8b b0 62 be 6d 83 cc 3a
       -0.29168862 -0.19699292 -0.22137658 0.0015603133
000110 21 56 16 bd 6e 20 28 be f3 12 c2 bd be e0 41 bd
       -0.036703233 -0.16418621 -0.094762705 -0.04733347
000120 d4 32 7f 3e 33 65 1b 3e 77 73 81 be 7d 31 9f 3e
       0.24921733 0.15175323 -0.25283405 0.31092444
000130 ee 47 52 3e 69 e8 87 3d 17 ac 5f 3e b8 a8 8d 3e
       0.20535251 0.066361256 0.21842991 0.27667785
000140 4b d4 b7 3d 51 61 bf 3e db fe e0 bd 77 f6 79 3d
       0.089760385 0.37378934 -0.1098611 0.061026063
000150 fe dc 08 be 95 25 46 be 3c 2e 77 ba ec 74 f9 bd
       -0.13365552 -0.19350274 -0.00094291917 -0.12180504
000160 de a8 00 bf 0f 3f f6 bd ae 54 d9 3e 33 74 d5 3d
       -0.5025767 -0.12023746 0.42447418 0.10422554
000170 a6 bb 64 3e d3 35 b7 bb 52 fd 97 3d c7 bb a2 bd
       0.22337207 -0.005591133 0.07421364 -0.07945972
000180 95 e5 3c be 0a b4 ac be d0 ce b6 be c9 0d a1 3e
       -0.18446954 -0.3373111 -0.3570466 0.3145583
000190 2c 69 cd 3d 7c 37 23 3e 1b 83 c8 bd e5 95 f6 3d
       0.100298256 0.15939134 -0.097906314 0.12040309
0001a0 10 5f ce bd 22 c4 68 be 4a 51 ac be 18 68 93 be
       -0.100767255 -0.22731069 -0.3365577 -0.28790355
0001b0 2e b7 c0 3d 88 ca 2d be 6f a6 72 bd 0d 92 b1 bc
       0.09409939 -0.16971791 -0.059240755 -0.021676088
0001c0 ec 03 10 3e e1 2f dc 3d b0 c1 8a 3b 19 1b b3 3e
       0.14063996 0.1075132 0.004234515 0.3498161
0001d0 fe 95 52 bd ce 44 b4 bd 89 46 1d be a5 eb 01 be
       -0.051412575 -0.08802186 -0.15358938 -0.12687548
0001e0 ec cd 11 3e e4 01 1c 3e 4f 72 44 3d 5e 5e d0 3c
       0.14238709 0.15235096 0.047960576 0.025435623
0001f0 84 a2 71 3e fc 07 54 3e b5 82 dc bc 6b a8 bc bd
       0.23597151 0.20706171 -0.026917795 -0.09211811
000200 68 82 fb bc 6f b9 59 3e 61 be 15 3d cf 45 d8 bc
       -0.030701831 0.21262144 0.036558513 -0.026400475
000210 49 7e b4 bd 61 ca 54 bd 04 a5 2d 3e f2 64 8d 3d
       -0.088131495 -0.051950816 0.1695748 0.069040194
000220 1c 49 5c 3e eb 46 bc 3e dd 91 ef bd 12 31 5a 3e
       0.21512264 0.36772856 -0.11697743 0.21307781
000230 48 a4 97 3e 09 27 18 3e df 74 be 3e 7a 4a d2 3e
       0.29617524 0.1485864 0.3719854 0.41072446
000240 55 15 45 3d 8c 77 63 be c8 a2 6c bd 52 8c 4f be
       0.048116047 -0.22213572 -0.057772428 -0.20268372
000250 b4 cb 96 be 1e 44 94 3d e5 6f b6 be 31 d3 6e bc
       -0.29452288 0.07239555 -0.35632244 -0.014576719
000260 ca cc 67 3e c1 43 da be 98 0d b1 3d c1 55 14 3e
       0.22636715 -0.42629817 0.08645171 0.14485838
000270 a1 67 f6 be 11 75 4d 3d e2 31 20 be bf 15 ea be
       -0.48125938 0.05016047 -0.15644029 -0.45719716
000280 c5 b9 a7 be 08 b7 9a bd a2 96 6f 3d 8b 69 47 bd
       -0.32758918 -0.07554442 0.058493264 -0.048684638
000290 d2 16 5e be 3b 48 5a 3d af ba 74 3e ba db 4b 3e
       -0.21688393 0.05329154 0.23899339 0.19908038
0002a0 1c 16 68 3e 0f c8 3c 3e 95 ed 20 3e 4c 67 a4 be
       0.22664684 0.18435691 0.1571563 -0.3211006
0002b0 e2 78 93 bd ac 1b b3 be 9a 02 48 be f9 8f 0f be
       -0.07200791 -0.3498205 -0.19532242 -0.14019765
0002c0 dc 3f 74 3d 2a 34 a3 bd da 80 0c be 9c 8f b4 ba
       0.059631214 -0.07968934 -0.13721028 -0.0013775709
0002d0 c3 ac ab be 28 fb 3e be 1c c2 6b bd 65 52 00 be
       -0.33530244 -0.18650496 -0.057558164 -0.12531431
0002e0 69 e9 93 bd e1 82 c4 3d 05 a5 3d be 2a 69 c7 bd
       -0.07222254 0.09595276 -0.18519981 -0.09736855
0002f0 bf 43 5c 3e c0 e1 99 3e 23 74 4e 3e 4e 5e aa 3e
       0.21510218 0.30055046 0.2016149 0.33275074
000300 e3 14 cb 3e cf 22 2b 3e 31 c5 83 3d cf 63 40 3e
       0.39664373 0.16712497 0.06434096 0.18788074
000310 ad 44 66 3e 74 d8 a8 3d 25 7d 68 3e 0c 0a 06 be
       0.22487135 0.0824441 0.22703989 -0.1308977
000320 a2 63 2d bd e1 f7 7c 3e 27 13 8a bc b3 14 40 3c
       -0.042331345 0.24703933 -0.016854836 0.011723685
000330 ac e9 89 3d 65 1f 19 be a1 e2 28 be cf 14 46 3e
       0.067340225 -0.14953382 -0.16492702 0.19343875
000340 c9 9b b6 bb b9 d2 32 bd cf 2a 24 3e cb 01 6d 3d
       -0.0055727703 -0.043657992 0.16031955 0.057863038
000350 e0 e3 66 bd a3 71 f1 bd 15 f1 ea bd 4b 41 6d be
       -0.056369662 -0.117892526 -0.11471764 -0.23169439
000360 bf 22 4f be 6b ae d4 be e9 98 a5 bd 98 20 c8 bd
       -0.20228098 -0.4153932 -0.08085806 -0.09771842
000370 0d e8 93 be 38 09 b1 3d 8c bd 4a be ce 60 8f 3c
       -0.28887978 0.086443365 -0.19798869 0.017502215
000380 5b 67 80 bd 58 d1 95 be 08 6c 49 bd 03 8e 19 be
       -0.062697135 -0.2926128 -0.049175292 -0.1499558
000390 93 22 fa 3d ce c5 83 bd f0 50 87 3e 48 31 82 3e
       0.12213626 -0.064342126 0.26428938 0.25428224
0003a0 a5 1f c8 3e a9 f3 1f 3e bb ce 87 be fe 5e 49 be
       0.39086643 0.15620293 -0.2652491 -0.19665143
0003b0 5f 84 e9 3d 70 5f 1d be bf cb fb 3c e1 5c b7 3d
       0.11402201 -0.15368438 0.030736802 0.08953262
0003c0 75 04 f9 3d 44 40 a9 3b 91 84 bb 3e a5 b5 ef bd
       0.12159053 0.0051651318 0.36624578 -0.11704568
0003d0 89 d3 0b 3e 83 a5 1a be 24 f4 75 be 96 87 83 be
       0.13654913 -0.151022 -0.24018914 -0.2568938
0003e0 08 ab 2f be 15 a5 b5 be 9d 2b 1a bf ff cd 59 be
       -0.17155087 -0.3547751 -0.602228 -0.21269988
0003f0 17 03 c9 3e 94 68 8c 3e 10 9d 90 3e fa 2a d6 3d
       0.3926017 0.27423537 0.2824483 0.10457416

patch_to_embedding.bias f4 [64]
000000 9d 9b 2f be ca e8 93 be 71 a6 85 be c5 f9 bc 3e
       -0.17149206 -0.2888854 -0.26103547 0.3690931
000010 fc 26 b6 be 7f 89 47 3e 99 1e 71 bd 19 31 82 be
       -0.35576618 0.19486044 -0.05886707 -0.25428084
000020 ab 9a 76 3e 50 ed b2 3e 39 c5 44 be fe 46 69 be
       0.24082439 0.3494668 -0.1921586 -0.22780988
000030 80 37 4f be 42 35 b0 be 35 63 a7 be 11 1c 6e 3e
       -0.20236015 -0.34415632 -0.32692876 0.23252894
000040 b8 55 a5 3d 0d 3a 62 3d 01 23 aa 3e ad db 84 3e
       0.0807299 0.055231143 0.3322983 0.2594885
000050 54 24 42 3e 3b d0 b3 be c1 eb 1f be 8a 13 cc 3e
       0.1895917 -0.35119805 -0.15617277 0.39858657
000060 07 f0 9b be 1b 39 21 be b9 6e b9 3e d6 54 b4 3e
       -0.30456564 -0.1574444 0.36217287 0.35220975
000070 e1 fc df 3e 64 b9 b7 3d db fb 90 3e 34 c2 82 3e
       0.4374762 0.08970907 0.2831715 0.2553879
000080 9a 79 3b 3e 71 0a 71 3d b2 b9 3d bd 31 6f 63 bd
       0.18308106 0.05884785 -0.04631967 -0.055525962
000090 94 dc 38 be 67 01 af be 6b 43 8b be 8c cf af bd
       -0.18052894 -0.34180757 -0.27199873 -0.08584508
0000a0 d7 eb f8 be b5 ca b7 3e 61 fb c8 be c1 eb b7 3e
       -0.48617432 0.3589684 -0.39254287 0.35922053
0000b0 14 d5 45 be 1c 64 c0 3e 43 0e ea be f1 5e d2 3e
       -0.19319564 0.37576377 -0.45714006 0.4108806
0000c0 3e 5f 61 be 68 16 82 be 4d 7a d0 3d 2c b9 7a bc
       -0.22008988 -0.2540772 0.10179577 -0.0153029375
0000d0 d9 e7 81 be 3d e2 9b be 86 ba 6a 3e 7d 51 d2 3e
       -0.25372198 -0.30446044 0.22922716 0.41077796
0000e0 fa 2d 08 3f 04 d5 c3 3d ed 30 18 bd ae 6a 8c 3e
       0.53195155 0.09562114 -0.037156034 0.2742514
0000f0 31 08 b6 be 35 d4 83 be e3 64 6b bd 7c 69 5b be
       -0.35553125 -0.2574784 -0.05746926 -0.21426958

transformer.layers.0.0.fn.norm.weight f4 [64]
000000 5c d5 5b 3f 81 ee 87 3f 4a 84 78 3f 73 98 60 3f
       0.85872436 1.0619661 0.9707686 0.8773262
000010 d6 7a 52 3f ce c0 9c 3f f0 e6 5b 3f f0 31 8b 3f
       0.8221868 1.2246339 0.8589926 1.0874615
000020 17 66 87 3f 33 bc 7a 3f 5c 55 78 3f 6f 86 6c 3f
       1.057803 0.9794342 0.9700525 0.9239263
000030 10 bb 92 3f 0f 2b 5b 3f ed 91 69 3f 51 37 79 3f
       1.1463337 0.8561258 0.9123829 0.9735003
000040 f6 7c 93 3f 01 46 88 3f a7 a1 8e 3f 74 66 8a 3f
       1.152251 1.0646363 1.1143082 1.0812516
000050 a0 a1 60 3f 62 cd 72 3f 55 00 8a 3f d8 7f 5d 3f
       0.8774662 0.9484464 1.0781351 0.865232
000060 22 5e 6b 3f 52 e6 6c 3f 90 db 4b 3f a8 39 8d 3f
       0.9194051 0.9253894 0.796319 1.103322
000070 7c 08 72 3f 32 ec a8 3f e8 5c 8a 3f e0 54 97 3f
       0.94544196 1.3197081 1.0809603 1.1822777
000080 46 5e 7e 3f 08 ea 51 3f c2 bc 98 3f be d0 8e 3f
       0.993626 0.8199773 1.1932604 1.1157453
000090 1c 3d 5a 3f c5 e4 6f 3f fe 23 8d 3f 70 e6 73 3f
       0.85249496 0.9370845 1.1026609 0.95273495
0000a0 ce 3d 9f 3f 68 7a 8d 3f 9e 54 85 3f 21 3c 75 3f
       1.2440736 1.105298 1.0416448 0.95794874
0000b0 14 2a 72 3f 73 fe 5d 3f 92 bf 57 3f 07 61 4f 3f
       0.94595456 0.86716384 0.8427669 0.81007427
0000c0 c2 78 84 3f af 45 62 3f f6 df 80 3f b3 c4 9c 3f
       1.0349352 0.8838758 1.0068347 1.2247528
0000d0 f2 51 4f 3f 5b 56 7d 3f 3d e2 57 3f 33 01 9c 3f
       0.80984414 0.98959893 0.8432959 1.2187866
0000e0 3d d5 75 3f c4 f0 82 3f 6f ef 57 3f 14 53 55 3f
       0.960285 1.0229726 0.8434972 0.8332989
0000f0 87 36 6b 3f de 18 85 3f 4c 61 7f 3f 76 cf 73 3f
       0.9188008 1.0398214 0.9975784 0.95238435

transformer.layers.0.0.fn.norm.bias f4 [64]
000000 79 6d 2c be 8b 48 bb bd 98 2d 04 be 46 01 e1 3c
       -0.16838636 -0.09144696 -0.12908018 0.027466428
000010 d4 c5 8b bd 7c c8 07 3d 04 4f a9 3d 8b df b8 bd
       -0.06824842 0.03315018 0.08267024 -0.090270124
000020 92 dd 35 3d 77 c4 c6 3d e5 71 5f be 66 9a 4e bd
       0.04440076 0.097054414 -0.21820791 -0.050440215
000030 53 3d 30 bc 93 73 55 be 5c da b4 3b 80 d6 58 3d
       -0.010756808 -0.2084487 0.0055191945 0.05293894
000040 a9 8f 39 3c bd 28 37 bc 35 a8 ec 3d 6c e5 5c 3d
       0.011325755 -0.011179146 0.115555204 0.05392973
000050 89 6b cc 3d a9 68 d5 bd aa e1 c8 bd d1 0a 02 3e
       0.09981448 -0.10420353 -0.09808667 0.12699439
000060 cd 9a 08 be f2 be 1d be 2e 6c 9b 3d 09 c8 a9 3d
       -0.13340302 -0.15404871 0.07588993 0.08290107
000070 07 3e a7 3d 50 0e 81 3c ac 40 df 3d 2f 9e ab 3d
       0.08166128 0.015753895 0.10901007 0.083797805
000080 19 50 2f 3e 87 3a d4 3d f1 e8 6d bd 99 eb b9 3c
       0.17120399 0.10362726 -0.05808348 0.02269535
000090 7b 59 bf bd 5e 06 04 be 44 86 58 bd d5 39 93 bd
       -0.09343239 -0.12893054 -0.05286242 -0.07188765
0000a0 40 5e ef bd 05 ce 01 3e 55 85 16 be dc 63 0e 3e
       -0.11687899 0.12676246 -0.146993 0.13905281
0000b0 3c 75 fe bd e5 bf 89 3d 07 2f d2 bd 6c e9 c3 3d
       -0.124247044 0.06726054 -0.10262876 0.09566006
0000c0 0c c0 88 bd eb 7e 77 bd 67 1e 06 bd bd e2 40 3d
       -0.06677255 -0.060423773 -0.032743838 0.047091234
0000d0 56 16 ad bd 6b 9d ea bd 07 70 2c 3e 02 d9 0b 3e
       -0.08451526 -0.11455806 0.1683961 0.13657
0000e0 40 c2 c1 3d b3 0e e0 3d 7d 48 fa bc fc 6e 15 3e
       0.09460878 0.10940304 -0.030552143 0.14593118
0000f0 eb e7 bc bd 82 0d d4 bd 3e 6e d4 bd f3 ed 37 be
       -0.09223922 -0.10354139 -0.103725895 -0.17961864

transformer.layers.0.0.fn.fn.to_qkv.weight f4 [192, 64]
000000 97 b2 37 be f8 1c 14 be e2 e3 9d ba 25 6b 93 3d
       -0.1793922 -0.14464176 -0.0012046064 0.071981706
000010 60 2b af bc ad 20 8d bd 5c 74 47 bd c4 c0 d3 3d
       -0.021382987 -0.06890998 -0.048694953 0.103395015
000020 22 fa ce bd c0 93 88 3d 54 5f 0f 3e d5 de ac 3c
       -0.10106303 0.06668806 0.14001209 0.021102348
000030 63 7c e7 bc 57 2e 01 3e ec 9e 8a 3d b1 c3 d5 bd
       -0.028257554 0.12615333 0.06768593 -0.10437716
000040 0b d9 a2 bd 8c 98 20 3e fb 36 98 bd 14 2b 14 3c
       -0.07951554 0.15683192 -0.07432362 0.009043474
000050 c0 1b 82 3d f8 2e 9a bd 24 1f 3b be 17 b0 4a 3d
       0.06352949 -0.0752849 -0.18273598 0.04948434
000060 4f 6a 57 3d d4 ce 93 ba fa ae d5 3d 76 82 0e 3e
       0.05259162 -0.001127685 0.10433765 0.13916954
000070 a9 af ad 3d 72 d4 31 be 6f e8 04 3e 3c 70 94 3d
       0.0848077 -0.17366198 0.12979291 0.072479695
000080 d0 e9 ca 3d b1 d9 90 3d 6f 28 9e be 03 89 8b 3e
       0.099078774 0.07072771 -0.30890223 0.2725297
000090 32 5f 37 3e 90 ff 2b bd 05 3e cf 3d c5 39 00 be
       0.17907408 -0.04199177 0.10119251 -0.12522037
0000a0 9a bb 8e be e0 44 c1 3b 43 ff 0f 3e 44 40 ea bd
       -0.27877504 0.005898103 0.14062218 -0.11438039
0000b0 e3 88 33 be 4b 97 9d bd ca a8 c2 3d 30 f1 9e 3d
       -0.17532687 -0.076948725 0.0950485 0.077608466
0000c0 0d ce e0 3d 9b 24 62 3e 74 16 a3 bb 64 3e 69 3d
       0.10976801 0.22084276 -0.004977042 0.056944266
0000d0 4e 43 a5 3d d8 d0 c6 3d 3c fd c0 bd c1 73 b6 bd
       0.08069478 0.097078025 -0.094233006 -0.08908797
0000e0 36 aa 65 bd aa 11 db 3d 98 ac e9 bd af ef 0d be
       -0.05607053 0.106967285 -0.11409873 -0.13860963
0000f0 03 80 98 3d 07 4e a4 3d ad 03 49 3e 80 35 9e 3d
       0.07446291 0.08022695 0.19630308 0.07725048
000100 0d 2d 31 bb a5 10 06 bd d0 8f 33 3e 65 a9 86 bd
       -0.002703491 -0.032730717 0.17535329 -0.06575278
000110 ff 02 cd bc 18 09 1e 3e 2e 4f 95 3c f6 9c 30 be
       -0.025025843 0.15433156 0.018226232 -0.17247376
000120 74 c4 3d 3e fa 9e a6 bd fa d2 b2 3c 91 ba 2f 3d
       0.18531972 -0.08135791 0.021829117 0.042902533
000130 f4 fa 38 bd 59 9b 2e bd b7 2a 51 be 6d 26 6b 3c
       -0.045161203 -0.04262862 -0.2042645 0.014352423
000140 5d 8f 8c be 09 e2 61 be 8f f1 a5 3d e6 b7 43 be
       -0.27453128 -0.22058882 0.08102714 -0.1911312
000150 76 cb 5b 3e 28 43 36 3e c9 3b 44 bc 7b 4b 63 3d
       0.21464333 0.17799056 -0.0119771445 0.055491906
000160 41 ba 46 bb be 69 db 3b 9d b5 da 3d 0c 97 17 be
       -0.0030323418 0.006695955 0.10679171 -0.14803714
000170 27 b0 19 3e ba bc 64 3d a7 41 9a bd 73 d4 17 bd
       0.15008603 0.055844046 -0.075320534 -0.03706784
000180 29 c4 eb 3d 67 41 1a 3e 8f 0f 8f 3d 6f 18 2f be
       0.11512024 0.15064012 0.069853894 -0.17099164
000190 b2 4a 58 3b 6f ec b0 3d 0c d6 ea bd b8 b4 a8 3c
       0.0033003506 0.08638846 -0.114666075 0.020593986
0001a0 90 b4 d1 bb 9a 93 a0 bd 06 41 1f 3c f8 b9 88 3c
       -0.0063996986 -0.07840653 0.009720093 0.01669024
0001b0 6a 44 51 bd a8 f1 01 bd 26 3c 48 3d 57 f6 a6 bc
       -0.051090635 -0.031724602 0.048885487 -0.020381136
0001c0 75 ec 9f bd ff e0 09 3e c4 e0 ce 3d 6d cf 6a bd
       -0.078087725 0.13464735 0.101014644 -0.057326723
0001d0 6a e3 12 3e e9 8d 01 3d 60 f8 21 be 9f d0 56 bd
       0.14344564 0.031629477 -0.15817404 -0.05244505
0001e0 5b a3 21 be 1d d4 a2 3d 6b 19 8e 3d e4 0c 6f 3d
       -0.15784971 0.07950614 0.06938442 0.058361903
0001f0 5a 1c f3 bd b2 09 20 bd 57 fc 57 3c 05 a0 a9 be
       -0.11870642 -0.039071746 0.013182721 -0.33129898
000200 77 98 a1 bd 7d f1 5d 3d 59 40 a2 3d ae 3b 35 bd
       -0.078904085 0.05418538 0.079224296 -0.044246368
000210 ec c6 71 bd 77 3c 76 3c b3 cd 99 3d 31 1c 40 bc
       -0.059027597 0.015029064 0.07509937 -0.011725471
000220 72 a8 bd 3d bb bd 6e bd 2a 33 5a bd 4b e2 3f be
       0.09260644 -0.05828641 -0.05327145 -0.18738668
000230 ec 4b 41 3e 5e b2 25 3e c4 7f 93 bd 54 17 2c 3c
       0.18876618 0.16181323 -0.07202104 0.010503609
000240 ba d2 85 be 9d 4a e9 bd bd b3 3e be 78 3a 92 bd
       -0.26137334 -0.113911845 -0.18623252 -0.07140058
000250 1e 71 d8 bd ca d4 0a bd 1b c8 45 3d 3f eb 0c be
       -0.105684504 -0.033894338 0.04828654 -0.13761614
000260 d8 41 4f bd 20 a0 f4 3d 8d cf 26 3d b9 dd 44 3e
       -0.050599903 0.11944604 0.04072528 0.19225205
000270 76 29 01 3e 69 6e 19 3e 00 ca 0b bd e2 d9 2f 3e
       0.12613472 0.14983524 -0.03412819 0.1717296
000280 ff 9b 51 3d 74 82 b6 bd 82 2c 5e 3e d4 92 44 be
       0.05117416 -0.08911601 0.21696666 -0.19196635
000290 81 1d f6 3d 51 17 09 3e 38 f1 91 bd 6c d2 d3 bd
       0.12017346 0.13387801 -0.07126087 -0.10342869
0002a0 32 b6 0e bd fa 8c 45 3e 47 55 e9 bc 0e c4 04 bb
       -0.034841724 0.1929206 -0.028483046 -0.002025846
0002b0 bf 9a 03 3e 52 98 12 3d ed 83 26 3d fe 50 0e bd
       0.12852 0.035789795 0.040653158 -0.03474521
0002c0 be 5c ad 3d a9 ba 61 bd fb 87 e2 bc d9 a5 bf be
       0.08464955 -0.055109654 -0.027652731 -0.3743122
0002d0 9c c3 ea 3c 14 5a 2c 3c 83 62 68 ba 22 5e 34 bd
       0.028657727 0.010519523 -0.0008864777 -0.044035085
0002e0 a6 44 37 3d 16 ee 06 3e 41 f7 88 bd bf 3d 7d 3d
       0.044743203 0.1317676 -0.06687785 0.061826464
0002f0 f3 2d b9 bc fe cf 75 be 4b 92 1f 3e ca 8e 81 bd
       -0.022604918 -0.24005124 0.1558315 -0.06326063
000300 fd 97 60 bc 04 eb e2 bd 0a e1 bf 3d 64 c5 d1 bd
       -0.013708112 -0.11079982 0.09369095 -0.102427274
000310 87 ca b5 3c ed 67 20 3e 6c d6 9f 3d d9 fb 8d be
       0.0221913 0.15664645 0.078045696 -0.27731207
000320 34 b6 65 be e3 94 af 3e 67 fb d2 bd d5 58 b3 3d
       -0.22432786 0.3429328 -0.103018574 0.08757178
000330 8f 2b d6 bc 25 ca 17 3d f8 2c cb 3d e1 e9 1b 3e
       -0.026143817 0.037058014 0.099206865 0.15225936
000340 04 6a 0b 3e 94 cd 8f 3c 36 f0 ab 3d b3 a6 00 be
       0.1361466 0.017554082 0.08395426 -0.1256359
000350 85 ec 55 bc 5a ff 17 3c 37 ff d1 3d c1 42 50 3d
       -0.013056879 0.009277189 0.102537565 0.05084491
000360 c9 77 55 be 43 89 bd 3d 2d c3 44 bc fa 65 2f bb
       -0.20846476 0.09254696 -0.012009424 -0.0026763664
000370 12 45 f2 bd 27 16 72 3d c1 bf 3b 3e 8a 6c 2b 3d
       -0.1182958 0.059103157 0.18334867 0.041851558
000380 21 32 d4 bd 65 ff 98 3d 78 24 c0 bc bd dd 16 be
       -0.10361124 0.07470588 -0.02345489 -0.14733024
000390 9f 04 ff bd da c4 5a be d1 1f 85 be f7 df 20 be
       -0.12452053 -0.21364155 -0.26000836 -0.15710436
0003a0 f0 97 13 3e 85 12 b7 3d 09 4d 8a 3c 85 ac 35 bd
       0.14413428 0.08939079 0.016882436 -0.04435398
0003b0 bb 61 a6 bd d9 6f e7 3d e7 d1 94 3b f0 a3 a7 3d
       -0.08124109 0.1130063 0.004541624 0.081855655
0003c0 f0 dd 15 bd a3 1a 99 bd dc f9 2b be 4e 06 20 be
       -0.03658861 -0.07475784 -0.16794533 -0.15627405
0003d0 86 b9 45 3d 6f f0 82 3d d6 8c 92 3d d3 47 11 3e
       0.048272632 0.06393515 0.071557686 0.14187555
0003e0 03 c6 4b be b0 86 5a bc 9f f9 31 3d 43 9f 58 be
       -0.19899754 -0.013337776 0.043450948 -0.21154504
0003f0 90 40 8d 3d 3c b5 52 3e 45 96 18 bd a8 83 ef 3c
       0.0689708 0.20576948 -0.037252683 0.029237583

transformer.layers.0.0.fn.fn.to_out.0.weight f4 [64, 64]
000000 4d 5b 00 bb 45 ba 91 bc f0 16 a0 3d 15 7f d9 bc
       -0.001958567 -0.017789016 0.07816875 -0.026549855
000010 ed 15 18 3e 5f 31 06 bd 2b 72 ff 3b 8c bb 94 bc
       0.14852114 -0.032761928 0.0077955923 -0.018155836
000020 56 19 54 bd 34 01 f5 3d 6e 20 0c 3d a6 44 5c bd
       -0.051781975 0.1196312 0.034210615 -0.053776406
000030 13 01 63 3d 07 c7 19 3e d2 74 20 bc b5 5e 4f 3d
       0.055420946 0.15017329 -0.009793477 0.05062743
000040 68 7f fe 3c 43 f9 fc 3c 0f 73 22 be 11 9c 0f be
       0.031066611 0.030880576 -0.15864204 -0.14024378
000050 da a4 68 bb 9d 3d 06 3d b8 26 11 bd a2 11 09 3d
       -0.003549865 0.032773603 -0.035437316 0.03346408
000060 b3 0b c7 3d 2d 8b 58 bd 81 9a 68 3d 17 d9 93 3d
       0.09719028 -0.052867103 0.05678797 0.07219141
000070 54 a4 2a bd be f7 4a bd 45 4f 61 bd 15 61 cf 3d
       -0.04166062 -0.04955267 -0.055007238 0.10125939
000080 f4 eb b3 3d 23 17 26 be 45 9b b7 bd 20 b5 be 3c
       0.08785239 -0.16219763 -0.08965162 0.023279727
000090 f9 e4 50 bd fc 89 44 bd 7c 98 05 3c 13 60 0f bb
       -0.050999615 -0.047983155 0.008154031 -0.0021877333
0000a0 a9 9f 18 be 64 b5 01 3d cc 8b bd 3d ad 74 cd 3d
       -0.14904656 0.03166713 0.0925518 0.1003202
0000b0 4b 12 9f bc a2 d2 83 bc 7a 06 7c 3d 37 9a 04 be
       -0.019417902 -0.016091648 0.061529614 -0.12949453
0000c0 90 b4 06 3e 8b 03 56 3d 86 53 04 3d 15 08 cf 3b
       0.13154817 0.052249473 0.032306217 0.006318102
0000d0 2e ee 7b 3c 23 68 18 be 68 aa 9a bd 5e 35 6d bd
       0.015376611 -0.14883475 -0.07552034 -0.057912223
0000e0 d3 ed c9 3d 23 94 15 3e 54 24 98 3d 9e 76 ca 3d
       0.098598145 0.14607291 0.07428804 0.09885906
0000f0 af 79 5b b8 e2 0e c0 3c 8c 75 3c 3e 58 fb ba 3d
       -5.2326996e-05 0.023444597 0.18404216 0.09129971
000100 8c cc cb bd 29 ce 11 bd 59 fd 88 3d b1 0e ce bd
       -0.099511236 -0.035597 0.06688947 -0.10061396
000110 a7 33 6b bc 16 35 c1 bd dd 00 72 3d 40 a2 72 bd
       -0.014355577 -0.094339535 0.059082855 -0.059236765
000120 07 77 da bc c1 b5 57 3b 2a 36 ab 3d d2 41 d2 3b
       -0.026668085 0.003291473 0.0835994 0.006416538
000130 84 53 10 3d 7c d7 06 3c 34 98 ad bd 75 52 8b bd
       0.035235897 0.008230086 -0.08476296 -0.06802837
000140 1c 33 77 3d 1b 19 6f 3c bb d6 c4 bc 5c ae fb 3c
       0.060351476 0.014593388 -0.024028173 0.03072279
000150 61 9c 96 3d e8 88 48 bd 81 2d b4 bd 98 66 04 bd
       0.07354046 -0.04895869 -0.08797742 -0.032324404
000160 92 a2 36 bd 27 a0 9a 3c 7f ab 7d bc 26 12 82 bd
       -0.044588633 0.018875195 -0.015482782 -0.06351118
000170 3e c4 88 3c 61 30 87 bd e1 86 c8 3d 22 13 9e bd
       0.016695138 -0.066010244 0.09791351 -0.07718493
000180 66 66 45 bd 5e d9 28 3e ff 77 8a 3d 82 ad 67 bc
       -0.048193358 0.16489169 0.06761169 -0.014140489
000190 c8 de f8 bd b7 e3 b0 bc 38 3c 31 bd b8 23 9e 3b
       -0.12151867 -0.021592958 -0.04327032 0.0048260354
0001a0 86 93 92 3d a3 64 11 3b 97 0e 92 3d 36 58 35 bd
       0.07157044 0.0022185228 0.07131689 -0.044273578
0001b0 f3 47 94 bd ff fe b8 bd cc 7e 62 3d 94 76 f0 3c
       -0.07240286 -0.09033012 0.055296704 0.029353417
0001c0 a3 ce 90 3d 28 2e 22 3e 24 d5 75 bd db 86 49 3d
       0.07070663 0.1583792 -0.06001772 0.049200874
0001d0 a9 ce 60 3e 45 bc f0 bd 7c 72 ed bd 66 9a 88 3b
       0.21953835 -0.117546596 -0.11594102 0.0041687964
0001e0 2f 91 09 3d 75 1a 9d 3a 0c 51 38 be f2 89 6b 3d
       0.033585723 0.0011986034 -0.17999667 0.0575046
0001f0 27 13 26 3d 56 33 e1 3d 30 7c c8 3d 3e 95 05 3e
       0.04054561 0.1099612 0.09789312 0.13045213
000200 84 68 2d 3d 90 cc 23 3c 9a af 06 be 8e fe 93 3d
       0.042336002 0.009997502 -0.13152924 0.07226287
000210 59 09 20 3e 41 a6 c8 bd 01 b7 09 3c d0 d8 9e bd
       0.15628566 -0.097973354 0.008405448 -0.077561975
000220 4a e1 0e 3e bc c4 c3 bd 32 96 98 bd 8f c6 55 3d
       0.13953128 -0.095590085 -0.074505225 0.052191313
000230 22 12 2e be 12 35 d7 bd 19 e7 ae bd 4a 17 20 bd
       -0.16999105 -0.10508169 -0.08540172 -0.03908471
000240 24 5f fb bd 95 2f 9a 3d 6f 0b 39 3d 04 40 1e 3e
       -0.12274006 0.07528607 0.04517692 0.15454108
000250 89 7a 26 bd 84 5c 90 3d 62 74 71 bd 6e 8f 81 bc
       -0.040644202 0.07048896 -0.058948882 -0.015815463
000260 bf 14 78 bd 93 6e 63 3d 76 c1 b3 bd f8 e6 74 bd
       -0.06056666 0.055525374 -0.08777134 -0.05979058
000270 99 ad 83 bd 22 9f 37 3e 00 1a 64 3a cf f7 bd 3d
       -0.064295955 0.17931798 0.0008701384 0.09275781
000280 c4 51 33 3e 5b e9 95 bd f7 c9 76 bc fc f2 5e 3d
       0.1751166 -0.073199 -0.015062801 0.054430947
000290 25 67 bb 3c 57 87 86 3d a2 05 dd 3b b4 04 15 3e
       0.022876332 0.06568783 0.0067450562 0.14552575
0002a0 7d 6d bc bc a6 13 95 3d d1 65 37 bb 41 d0 a9 3d
       -0.023001427 0.07279138 -0.0027984271 0.082916744
0002b0 9b b8 fe 3b 66 ab c4 bd ef 2f 6b 3d 5d ea a6 3d
       0.0077734715 -0.09603004 0.05741876 0.0815017
0002c0 47 3c 89 bd 01 00 8a bd d7 64 01 3e a9 ca d2 bd
       -0.0670095 -0.06738282 0.12636124 -0.102925606
0002d0 b4 7d 09 be c6 f3 c0 3d b5 71 1e be 7f 2a ea 3d
       -0.13426858 0.09421496 -0.15473063 0.11433887
0002e0 3f 58 c2 bd 7d 1d cb 3c ae 9d c6 bd 26 63 df 3d
       -0.09489488 0.024794335 -0.09698044 0.10907583
0002f0 b7 92 b1 bd 81 a6 d4 3d aa aa 62 bc 93 d4 97 3d
       -0.08670562 0.103833206 -0.013834635 0.07413592
000300 fa ee 28 ba 68 63 93 bc 77 94 e8 bc 9e be 5f bb
       -0.00064443017 -0.017991737 -0.028391106 -0.0034140716
000310 c9 e0 d6 3d 40 0a 92 bc bb 39 05 3e a1 1a ba 3d
       0.10492093 -0.017827153 0.13010304 0.0908711
000320 69 71 c3 3d e8 05 aa bd 29 a2 1b bd 60 83 09 be
       0.09543116 -0.08301908 -0.037996445 -0.13429022
000330 ac 31 4b bd fe 47 d6 3c d5 26 6c 3d e6 99 d7 3d
       -0.049607918 0.026157375 0.05765422 0.10527401
000340 9c 10 e2 3d 2c 75 f6 bd d5 22 ad bd 0d 1f 93 bd
       0.11038324 -0.120340675 -0.08453909 -0.07183657
000350 75 8d b8 b8 e1 d0 99 bd e5 70 d4 bd 84 42 5c 3d
       -8.800152e-05 -0.075105436 -0.103730954 0.05377437
000360 38 16 9e bd bd cc ed 3c d4 0f ce bc c6 f9 05 3e
       -0.07719082 0.02902829 -0.025154032 0.13083562
000370 6d 86 e5 bd 78 17 13 3d 90 ca 87 bc 79 92 b9 bd
       -0.1120728 0.035911053 -0.016576082 -0.090611406
000380 70 69 20 bc 21 ab d5 3c 72 68 80 3d 6d 2c 8a 3b
       -0.009790763 0.026082577 0.06269921 0.0042167217
000390 e7 9f 2f 3e 87 25 ae 3d 2a 40 19 3e 4c d7 12 be
       0.17150842 0.085032515 0.14965883 -0.14339942
0003a0 7c 88 4f 3d 59 a7 10 be bf c8 23 3d 90 77 f0 3d
       0.05066727 -0.14126338 0.03998637 0.11741555
0003b0 4a 88 65 bd d3 e4 c6 bb 29 4c 26 3d c5 6e 14 bd
       -0.05603818 -0.0060697584 0.040599976 -0.03623845
0003c0 71 c2 c3 bd da bb c0 3d 32 f9 27 bb 84 66 24 bd
       -0.09558571 0.0941083 -0.002563071 -0.04013683
0003d0 f6 ce 45 bd 7c 02 ab bd 2b 69 36 3d 97 ab c1 3d
       -0.048293076 -0.08350083 0.04453389 0.09456556
0003e0 57 4e 79 bd 3e 76 05 3d a7 eb c3 3d f6 45 f7 3c
       -0.060865726 0.032583468 0.095664315 0.030184727
0003f0 1e cf 09 3d ec 99 8d bd ef d1 0b 3e c7 46 98 3d
       0.033644788 -0.06914124 0.13654302 0.07435375

transformer.layers.0.0.fn.fn.to_out.0.bias f4 [64]
000000 be 49 92 bd 6b e7 1d 3d 3e 5a b0 3c a5 7b b0 3a
       -0.071429715 0.038550775 0.021527406 0.0013464583
000010 df 21 7a bd b8 ab d9 bd 0c c3 d9 3b 1b 68 64 bd
       -0.06106746 -0.10628456 0.006645566 -0.055763345
000020 66 0f c7 3d 27 71 15 3e 4f 38 7b 3c 1b 40 0a be
       0.09719734 0.14593945 0.015333249 -0.13501017
000030 6e 72 ee bd d7 05 40 bd 32 bd 31 be 72 e6 11 3e
       -0.116429195 -0.04688057 -0.17357329 0.14248064
000040 62 e5 14 3d 16 73 bc 3d 10 16 a9 bc ee 25 19 bc
       0.03635157 0.092016384 -0.020640403 -0.009347422
000050 59 96 82 3d 5c 91 82 bd ca 33 e8 3c d9 a5 e9 3d
       0.06376333 -0.06375381 0.028345007 0.11408586
000060 8b 7e 05 be cc a0 03 bd 11 d8 42 3d b2 93 ce bc
       -0.13036554 -0.03213577 0.04756934 -0.025216911
000070 86 3e eb 3d 3b fc a7 ba 35 0f 05 3e 81 67 ec bc
       0.11486535 -0.0012816259 0.12994082 -0.028857948
000080 b8 29 92 3d 97 67 d0 3d 87 05 bc 3d 4f f8 05 bc
       0.071368635 0.10176008 0.09180742 -0.008176877
000090 47 23 e5 3c f5 88 4d be 12 16 80 3d 3b be 5c bd
       0.027970923 -0.20071776 0.062542096 -0.053892355
0000a0 68 4e 63 3b db b2 00 bc db 81 66 bd 39 e6 e1 3d
       0.0034684185 -0.0078551425 -0.056276184 0.110302396
0000b0 d9 b4 e8 bc eb a3 dc 3d 7e fe ff 3c 77 6f c0 3c
       -0.028406547 0.10773452 0.031249281 0.02349065
0000c0 2e 59 e3 bd 05 a2 1b bd ce 41 bf bd 80 95 29 be
       -0.11100994 -0.03799631 -0.09338723 -0.16560936
0000d0 36 7b 64 3c cd f8 d1 bc 39 83 10 3e 06 03 d0 bc
       0.013945391 -0.025631333 0.14112557 -0.025392067
0000e0 f8 d2 31 3d fd 97 ca 3d b5 2d cb 3d 02 42 80 bd
       0.043414086 0.09892271 0.09920827 -0.0626259
0000f0 1a a5 5f bc d4 70 bc bd 24 4f 60 bd e8 a5 ab bd
       -0.013650203 -0.09201208 -0.054762974 -0.083812535

transformer.layers.0.1.fn.norm.weight f4 [64]
000000 94 4a 62 3f 7c 54 68 3f c5 a4 81 3f bf 54 7b 3f
       0.8839505 0.9075391 1.0128409 0.9817619
000010 ef 8a 5e 3f e5 eb 7b 3f 7b 3e 64 3f 3b 57 85 3f
       0.86930746 0.9840682 0.8915784 1.0417246
000020 21 66 7b 3f 7c 2f 89 3f a2 76 96 3f 04 a2 74 3f
       0.9820271 1.0717616 1.1754954 0.95559716
000030 e1 ba 7a 3f e2 69 64 3f 2b f3 77 3f e2 5f 5b 3f
       0.97941405 0.89224064 0.9685542 0.8569318
000040 15 1a 67 3f 7f 0c 53 3f fd 3b 7e 3f fe c6 78 3f
       0.90274173 0.8244094 0.99310285 0.9717864
000050 6f c4 7a 3f f2 23 56 3f 7e 02 87 3f 43 2b 56 3f
       0.97955984 0.836486 1.0547636 0.8365976
000060 a5 c8 6c 3f e3 2d 60 3f b3 c7 80 3f 63 71 b8 3f
       0.9249366 0.8757002 1.0060943 1.4409603
000070 28 bd 6a 3f f2 10 77 3f 09 ab 6e 3f b1 e8 7c 3f
       0.9169488 0.9651023 0.9322973 0.9879256
000080 83 f8 62 3f 23 10 7f 3f b5 35 74 3f 0b b5 4e 3f
       0.8866045 0.99634 0.9539445 0.80745
000090 48 b1 72 3f 0f a6 65 3f 04 b7 63 3f 08 d5 7d 3f
       0.9480176 0.8970651 0.88951135 0.99153185
0000a0 8c 5e 8a 3f ad 92 81 3f 35 16 5e 3f 32 b1 a3 3f
       1.0810103 1.0122887 0.86752635 1.2788451
0000b0 ee 79 79 3f 0f 8b 5d 3f 98 f2 67 3f 13 68 6f 3f
       0.97451675 0.8654031 0.90604544 0.9351818
0000c0 8a 26 61 3f d2 52 7a 3f 9e 9a 85 3f 31 49 89 3f
       0.8794943 0.97782624 1.043781 1.0725461
0000d0 3c 57 69 3f 18 27 5d 3f c2 bf 5b 3f 5f ea 91 3f
       0.91148734 0.8638778 0.85839474 1.1399649
0000e0 32 c4 7c 3f 5c 69 85 3f 3e cc 55 3f 60 62 6a 3f
       0.9873687 1.0422778 0.83514774 0.9155636
0000f0 69 62 6b 3f c2 d5 5c 3f 44 24 81 3f bf d3 67 3f
       0.91947037 0.8626367 1.0089192 0.90557474

transformer.layers.0.1.fn.norm.bias f4 [64]
000000 84 80 d0 bc 04 58 e9 3d 4d 07 4c bd 6b c6 0e bd
       -0.025451906 0.11393741 -0.04981165 -0.034857195
000010 77 af 8b 3b 49 64 ae 3d 67 13 b3 3d 6d 59 d5 bd
       0.0042628604 0.085152216 0.08743935 -0.10417447
000020 af 80 b5 bd 4e 65 0c 3e e3 85 5b 3d 7b 04 15 be
       -0.08862435 0.1371052 0.05359448 -0.1455249
000030 d3 59 f3 3c 0b 52 b8 bd 2f 7e 7c 3d 50 5f 95 3b
       0.029705917 -0.090000235 0.061643776 0.0045584813
000040 bc 05 4d 3d 6c 69 b1 bd b9 bb 9c 3d 92 7f 3b 3d
       0.050054297 -0.08662686 0.07652993 0.045775957
000050 78 68 ba bc d1 69 2a bd 3a 6b d5 3d fc e8 fb bc
       -0.022754893 -0.04160482 0.104208425 -0.030750744
000060 26 96 1d 3d 73 c4 27 be 89 c1 ff 3c 5f 77 0b be
       0.03847327 -0.16383533 0.031220214 -0.13619755
000070 38 a0 b9 3c fb 7a d8 3d d9 a1 96 bd 3f da 0e 3d
       0.022659406 0.10570332 -0.07355089 0.034876104
000080 a5 41 e1 bd 76 9a bf 3d 02 05 1e 3e 47 bf a2 bd
       -0.10998849 0.09355633 0.15431598 -0.079466395
000090 9c 8e 2c 3d 49 54 0c 3a 78 05 90 bc 22 0e 04 be
       0.04212819 0.00053531356 -0.017580733 -0.12896016
0000a0 b2 83 bc 3c ac 30 e7 3c a7 e0 29 bd e2 33 f6 bc
       0.023012016 0.02822145 -0.04147401 -0.030054037
0000b0 9f d7 c6 bd da fc 01 3d ba 7e 68 3d 45 5a de bd
       -0.09709095 0.03173528 0.05676148 -0.10857061
0000c0 18 7a 94 3c e2 98 fd 3c 3c 87 6d bd 26 9b 33 be
       0.018124625 0.03095669 -0.057990298 -0.17539653
0000d0 3c 3b e0 3c 02 85 c1 3c f5 8c c9 3d f7 8f 69 3d
       0.027371995 0.023622993 0.098413385 0.05702206
0000e0 d7 48 4f bc be dd ba 3c 32 35 1a bd f3 5a 60 bd
       -0.012651644 0.022810813 -0.037648387 -0.054774236
0000f0 86 cb c1 bd 56 e5 e8 3d e5 13 aa 3d cc f0 1a bd
       -0.09462647 0.11371867 0.08304576 -0.037827298

transformer.layers.0.1.fn.fn.net.0.weight f4 [8, 64]
000000 6f 57 8e bd aa 34 68 3d f2 96 c0 bd 2d d1 65 bd
       -0.069502704 0.05669085 -0.094037905 -0.05610769
000010 e3 7b d0 3c 16 e3 43 bd 87 49 36 be 10 37 8b 3d
       0.025449699 -0.047823988 -0.17801486 0.06797612
000020 a2 fd 44 3e 40 81 8e 3c f9 d9 12 be 6f 59 da bc
       0.19237378 0.017395616 -0.14340962 -0.026653973
000030 d8 a2 8c 3d cc e7 13 3e 0a 0d 3c bc 59 44 d7 bd
       0.068669975 0.14443892 -0.011477718 -0.10511083
000040 31 cb 0c 3e 80 f7 4d 3d f3 fd 6b 3d a7 4c 03 3e
       0.13749386 0.050284863 0.05761523 0.1282221
000050 42 5b b3 bd 46 f8 2f 3d 3b e2 df bc 7a f7 48 bd
       -0.087576404 0.04296138 -0.027329555 -0.049064137
000060 d3 49 c6 bd 18 db 33 bb 15 87 01 3e b7 9a 89 3d
       -0.096820496 -0.0027443822 0.12649186 0.06718963
000070 70 f0 13 3a e5 10 c7 3d 1b 43 c6 3d fc d5 b8 bd
       0.0005643433 0.09720019 0.09680768 -0.09025189
000080 f5 c1 86 3d a0 7e 15 3e 61 31 15 3d fa 0d 72 3c
       0.06579963 0.14599085 0.036424045 0.01477384
000090 05 f1 b8 3c c5 a7 2f be b2 f1 f9 3c e7 f3 4a 3e
       0.022575865 -0.17153843 0.030510757 0.19819604
0000a0 f1 a7 d0 bc b2 16 90 bd dc 18 d3 3c 8a bf f2 3c
       -0.025470706 -0.07035579 0.02576869 0.029632349
0000b0 5d ad c5 bc 7e 84 43 3d 95 df b6 3d 44 70 5e 3d
       -0.024130518 0.047733776 0.08929364 0.054306284
0000c0 f9 3c 55 bd c6 07 58 bd a4 4b 5f bd cf 23 95 3d
       -0.0520601 -0.05274179 -0.054515496 0.072822206
0000d0 3d 09 1d be 35 7f 22 bc 6a fd 05 bd 6b 5a f2 3c
       -0.15335555 -0.009918024 -0.032712378 0.02958413
0000e0 d3 cb 5e bc 77 31 a6 3d 56 2f 04 3d 11 f1 3e 3d
       -0.0135984 0.081149034 0.032271706 0.046616618
0000f0 6a 29 ee 3d 5c cc 12 bd 15 89 6b be 91 39 1c bd
       0.11628993 -0.035839424 -0.23001511 -0.038140837
000100 54 df 82 3d 6c 30 13 be ee 94 2c be ff 9c c1 3d
       0.06390253 -0.1437394 -0.16853687 0.09453773
000110 06 c1 32 be b3 2b 70 3d 93 8b 37 bd 4e 8b 94 3d
       -0.17456445 0.058635425 -0.044810843 0.07253133
000120 9b 4a 27 3d fd d5 23 be 6c ef ee 3c a0 aa 42 3e
       0.040842634 -0.15999599 0.0291669 0.19010401
000130 b6 ef e5 bc 84 0e d8 3c 1e 31 20 3e 05 2a 2f bd
       -0.028068405 0.02637411 0.15643737 -0.042764682
000140 1d 8f d5 3d 06 71 fc 3b 3b 97 67 bd 7c c1 2a 3a
       0.10427687 0.007703903 -0.05654071 0.0006513817
000150 ba 12 9b 3d e0 64 e8 bd 27 74 4d bc 3d 9c cf 3d
       0.07571931 -0.113473654 -0.0125399 0.10137222
000160 55 9a 18 3e 2b 0f 49 3d 50 2a 2c 3e 88 b9 76 3e
       0.14902623 0.04908673 0.16813016 0.24094212
000170 da 75 0f bd 93 54 95 3c dc 4b 10 be 47 90 db bd
       -0.0350245 0.018228805 -0.14091438 -0.10720878
000180 ea 29 b6 3d 22 eb 16 3d 6f db 69 bd e8 6a e8 ba
       0.08894713 0.036845334 -0.057094034 -0.0017732056
000190 59 3f fb 3c 30 c6 b3 3d a9 23 25 bd 96 8e a9 3d
       0.030669855 0.08778036 -0.04031721 0.08279149
0001a0 49 48 9d bd e7 11 23 3e 87 0f 75 bc 94 59 45 be
       -0.07679803 0.15924798 -0.014957315 -0.19272453
0001b0 5d 25 d4 3d 8a a4 09 3e f3 11 b3 bd 18 ef c9 3c
       0.10358689 0.13441673 -0.08743658 0.024650142
0001c0 b1 c0 8d bd aa 43 a0 bd d2 91 96 3c 53 54 4c 3e
       -0.069215186 -0.07825406 0.01838008 0.19954042
0001d0 90 b6 4a be a6 b0 19 bd c1 f1 13 ba 1b 2c 9e 3c
       -0.19796205 -0.03752198 -0.0005643629 0.01930814
0001e0 00 b6 45 be 9c cf 13 3e 7c 40 8f 3d 0e e8 e9 3d
       -0.19307709 0.14434665 0.06994721 0.11421214
0001f0 45 c0 4d 3d c1 0d 32 3a 06 67 e2 bc 01 3d 23 3e
       0.05023219 0.00067922106 -0.027637016 0.1594124
000200 40 20 28 bd 16 12 67 bc ea 1f 65 3d db 8c fb 3c
       -0.04104638 -0.014103433 0.05593864 0.030706814
000210 8b c5 34 3d a4 39 90 3c 05 8d 7a bc 5e 1e 5b 3e
       0.044133704 0.01760561 -0.015292411 0.21398303
000220 e6 bd 92 bd 20 4e 2b be 6e 78 18 be 00 1a 7b bd
       -0.071651265 -0.16729021 -0.1488969 -0.061304092
000230 27 66 1b 3e c8 0f 21 3d 6d a5 9c bd 06 5d 29 bc
       0.15175687 0.03932169 -0.0764874 -0.01033712
000240 83 b1 45 3a 16 5f 14 bd ce 04 e4 bd 5a 94 c2 bd
       0.0007541405 -0.036223494 -0.11133729 -0.09500952
000250 50 a5 0c 3d 3f 8e 56 3d 35 d7 d2 3d dd db a5 bd
       0.03433734 0.05238175 0.10294954 -0.08098576
000260 84 63 5c bc 18 56 bf bc ac 2f 6e bd 96 75 0c 3f
       -0.013451461 -0.023356482 -0.058150932 0.5486692
000270 f4 d9 d4 bc cf 01 c8 bd 81 13 24 bb 54 4a 76 bd
       -0.025982834 -0.0976597 -0.002503604 -0.06012948
000280 98 f2 5b bc 3b 28 1c 3d 8a 1b e3 bd 04 84 77 3d
       -0.013424538 0.038124304 -0.11089237 0.060428634
000290 c7 7d dd bc 6a 9c d4 bc 19 ca d8 3c a7 37 26 bd
       -0.027037514 -0.02595349 0.026463555 -0.040580418
0002a0 60 55 6e 3d 66 9f 95 bc d3 a4 81 bd dc 3c 87 3e
       0.05818689 -0.018264484 -0.06330266 0.2641362
0002b0 5b 8f 0f 3e d5 9c 92 bd 6d f2 05 be b9 c8 82 bd
       0.1401953 -0.071588196 -0.1308076 -0.06385941
0002c0 8a 46 87 bd 64 4a fd bd 6c 1a 2d be 8c 46 ab bc
       -0.06605251 -0.123677045 -0.1690461 -0.020907663
0002d0 7f 8e c9 bc b5 ba 7c bd 69 29 4f 3a 46 f6 36 3e
       -0.02460408 -0.061701495 0.0007902594 0.17867383
0002e0 e3 64 8e 3d a0 f9 e5 3d 5d ee 91 3c 2d 25 c7 3d
       0.06952836 0.11229253 0.017813856 0.097238876
0002f0 bf b9 e4 bd 9a 53 a6 bd 29 30 1f bd 47 17 81 3d
       -0.11168241 -0.081214145 -0.03886429 0.06303268
000300 bc 1f a9 3c 0d 39 0a be 73 fc 83 be 9a 3a e1 bb
       0.020645015 -0.13498326 -0.2577854 -0.006873441
000310 92 e1 5e bd 53 94 83 bd 7e 19 55 bc b6 08 c1 3d
       -0.05441434 -0.06424775 -0.013006566 0.094254896
000320 5d 81 fe 3c bc 6e 8f bd 4d 88 d9 be b5 58 91 3b
       0.031067545 -0.07003543 -0.42486802 0.0044356235
000330 ca 8f 36 3d 24 70 27 3c 57 18 91 bc 6a 01 72 3c
       0.04457072 0.0102196075 -0.017711801 0.014770845
000340 90 38 48 bd 9b 0d 01 3e 70 3d f5 bd 11 e0 0a 3b
       -0.048882067 0.12602846 -0.11974609 0.0021190683
000350 40 c0 15 3e bc f7 ba 3c 1c 21 23 3b b2 3d 85 bd
       0.14624119 0.022823207 0.002489156 -0.06505908
000360 13 26 9e 3a d7 1b f1 bb e9 1d f3 bd b8 19 01 bd
       0.001206579 -0.007358055 -0.11870939 -0.031518668
000370 06 82 a0 bd 52 70 36 be 75 38 11 3e ea ee 59 3e
       -0.078373 -0.17816284 0.14181693 0.21282545
000380 30 8e 9e 3c 9e 44 31 3b 22 f3 aa bd d0 7d 36 3b
       0.01935491 0.0027048956 -0.08347155 0.0027845986
000390 a2 5b fb bb b0 80 80 3c f5 03 d5 bd 18 3c 22 3b
       -0.0076708356 0.015686363 -0.10401145 0.0024755057
0003a0 19 9c e3 3d c7 27 b6 3d 8a 72 b4 bd 45 2d 24 be
       0.11113758 0.08894306 -0.08810909 -0.16032894
0003b0 4d cf 8d bd 81 d1 f8 bc ad e5 0c 3d 58 53 08 3e
       -0.06924305 -0.030373337 0.034398723 0.13313043
0003c0 ae 63 8f 3b 03 cc 35 bd 52 80 92 bd 66 34 24 bc
       0.0043758964 -0.044384014 -0.071533814 -0.010022258
0003d0 61 a1 43 bd 5e ea 7e bd 32 a5 85 bd 14 cb 68 3e
       -0.047761325 -0.06223523 -0.06525649 0.22733718
0003e0 df 43 a6 bd c9 3b b2 bd f7 92 58 3d 81 b6 c8 3d
       -0.08118414 -0.08702809 0.05287453 0.09800435
0003f0 a1 5e fa 3d 8e c8 f2 bc 65 19 1e be 93 b5 95 3c
       0.1222508 -0.029636648 -0.15439375 0.018275058

transformer.layers.0.1.fn.fn.net.0.bias f4 [8]
000000 cb 01 39 be 06 50 77 be 7a ec ea bd 65 1f 1c be
       -0.1806709 -0.2415162 -0.114708856 -0.15246351
000010 19 3f 2c be c5 3c 96 bc 52 31 12 3c fb 4b 25 be
       -0.16820945 -0.018339524 0.008922892 -0.16142265
